checkpoint.pth (torch_old, 28417 bytes, 6 tensors)

fc1.weight f4 [64, 37]
0.116099 -0.07066204 -0.3191834 -0.21844354 0.120965414 -0.1644812 0.019748705 -0.08875563
0.20188294 0.25505647 0.011866301 -0.5169221 0.025888361 -0.22302888 -0.27614975 -0.32376114
-0.06326256 0.24591921 -0.07339172 -0.46966064 0.23285648 -0.14982732 -0.15497851 0.14591748
-0.020842846 -0.5337955 0.107485354 0.021156633 0.10389453 -0.13026822 -0.3344197 0.0097988425
0.14460804 -0.33513054 -0.2025055 -0.01588646 -0.103320934 0.22648948 -0.08455098 0.07416969
0.08023293 -0.114192694 0.008707473 -0.26691648 -0.016778976 -0.12424471 -0.046976186 0.10441789
-0.08374999 0.09288934 -0.014383179 -0.005507838 -0.047725514 0.027820747 0.110583305 0.080384046
0.030671738 -0.07424232 -0.33092418 0.004874213 0.02840307 -0.14462963 -0.07016823 0.02404025
-0.047039755 0.0140072135 0.043048296 0.069181845 0.099525385 0.0028846331 -0.103979 -0.078033894
0.29850873 0.019329244 0.038597446 0.08246921 0.16744994 0.028048597 0.033987544 -0.94063807
-0.008725616 0.36999196 0.27719352 -0.6201457 0.14433561 0.0004127426 -0.052386954 -0.13614807
-0.01903393 -0.08499931 0.15745002 0.05323969 -7.162056e-05 0.28852934 -0.27405968 0.025976228
-0.008058398 0.06504401 0.1962082 -0.18564354 0.09972717 0.19291258 0.061584216 -0.14627425
-0.23016576 -0.007867781 -0.13940103 0.00947602 0.03798887 -0.03060754 0.024710663 0.50047255
-0.47475266 -0.39664352 -0.45156702 -2.1004574 0.0083069615 0.028511683 0.061276767 0.11494018
0.08821043 -0.024481947 0.03374558 -0.019653935 0.02367049 -0.041241847 -0.024739437 0.013522201
-0.058687996 0.04369755 0.03423014 0.02145269 0.04515463 0.009876754 0.037087962 0.06613218
0.029498918 0.07554408 0.034242924 0.12008138 0.18444835 0.049012277 0.08947164 0.09257937
0.13290662 -0.053734288 -0.0073726247 0.010711953 -0.061728284 -0.08287398 -0.063298084 -0.19317071
-0.123689555 0.11113377 0.13884997 0.06664891 0.10279427 -0.029124016 -0.0035600674 0.021991873
-0.04070159 -0.07655231 -0.07642401 -0.06846981 -0.07713376 -0.0037362424 0.080951 0.20787609
0.05210732 -0.0008749791 -0.0002158063 0.08859052 0.1238134 0.39794454 -0.6783979 -0.38973066
-0.68831444 -2.0228717 0.09599487 0.05609623 0.06308947 0.13560529 0.120172694 0.0065219584
0.003419907 0.05706726 0.057064354 0.05509791 -0.012535881 0.03535566 0.30606273 -0.035461225
0.016696218 -0.3228466 -2.0526915 -0.031936053 0.003600869 0.03937503 0.03488918 -0.056528665
0.012116022 0.07409995 0.09256914 -0.013394542 0.07154956 0.13282031 0.11298276 0.07551051
0.21097271 0.11468974 0.07527672 0.01713597 0.05738789 -0.028223393 0.10736147 -0.034633826
0.026956465 0.006508487 0.1431534 0.14625302 0.022134984 -0.00053129287 0.03268265 -0.14866814
0.003058148 -0.24501246 -0.5373612 -0.3196291 -0.016415488 0.21116045 -0.45845824 0.32707024
0.050203834 -0.07413149 0.14979364 -0.22228307 0.18062411 -0.119949915 -0.28259325 0.012089017
0.084204026 0.26002264 -0.002765612 -0.20214356 -0.14607395 -0.04121501 0.25456166 -0.026489321
-0.18130802 -0.15710917 0.03416463 -0.12835881 0.02502296 -0.07048 -0.2554592 0.17153564
00000000: 50c5 ed3d 42b7 90bd 026c a3be aaaf 5fbe
00000010: b7bc f73d c26d 28be 09c8 a13c 83c5 b5bd
00000020: 67ba 4e3e c396 823e e06a 423c 0255 04bf
00000030: d413 d43c af61 64be 8063 8dbe 05c4 a5be
00000040: cd8f 81bd 3fd2 7b3e 664e 96bd 5c77 f0be
00000050: ee71 6e3e 556c 19be b0b2 1ebe 646b 153e
00000060: 9ebe aabc d2a6 08bf 4821 dc3d ad50 ad3c
00000070: a8c6 d43d 0865 05be 0f39 abbe 538b 203c
00000080: 2114 143e 3b96 abbe 9a5d 4fbe 5224 82bc
00000090: ed99 d3bd dcec 673e 1029 adbd 47e6 973d
000000a0: 2a51 a43d dcdd e9bd caa9 0e3c 47a9 88be
000000b0: 1074 89bc 0374 febd 1a6a 40bd 0cd9 d53d
000000c0: 1d85 abbd c43c be3d 6da7 6bbc 187b b4bb
000000d0: d47b 43bd 56e8 e33c 8079 e23d 64a0 a43d
000000e0: 4c43 fb3c 5c0c 98bd e56e a9be ddb7 9f3b
000000f0: 8ead e83c ca19 14be 5cb4 8fbd 0ff0 c43c
00000100: c2ac 40bd 837e 653c 6953 303d 36af 8d3d
00000110: f7d3 cb3d 1d0c 3d3b f1f2 d4bd 3cd0 9fbd
00000120: 23d6 983e 5d58 9e3c 5b18 1e3d 9ee5 a83d
00000130: ff77 2b3e 2cc6 e53c 8636 0b3d a8cd 70bf
00000140: e3f5 0ebc 966f bd3e 4fec 8d3e dec1 1ebf
00000150: b7cc 133e 6065 d839 b493 56bd 666a 0bbe
00000160: 0bed 9bbc 1e14 aebd 943a 213e dc11 5a3d
00000170: ff32 96b8 1eba 933e 8d51 8cbe 19cc d43c
00000180: 5f07 04bc cb35 853d cdea 483e 5719 3ebe
00000190: c23d cc3d e08a 453e bb3f 7c3d ebc8 15be
000001a0: 93b0 6bbe dee7 00bc 25bf 0ebe 4f41 1b3c
000001b0: 389a 1b3d aabc fabc 046e ca3c f81e 003f
000001c0: c812 f3be dc14 cbbe cb33 e7be e56d 06c0
000001d0: ec19 083c 5591 e93c 59fd 7a3d c265 eb3d
000001e0: aca7 b43d 5d8e c8bc ce38 0a3d 4a01 a1bc
000001f0: 9ee8 c13c 36ed 28bd 5caa cabc 398c 5d3c
00000200: d362 70bd 34fc 323d e734 0c3d 8dbd af3c
00000210: 10f4 383d 1cd2 213c 8ce9 173d 4f70 873d
00000220: b7a7 f13c dbb6 9a3d 4f42 0c3d 3aed f53d
00000230: 07e0 3c3e 19c1 483d e83c b73d 419a bd3d
00000240: ac18 083e 7c18 5cbd 0f96 f1bb 3081 2f3c
00000250: ccd6 7cbd d5b9 a9bd 6da2 81bd 8bce 45be
00000260: f350 fdbd 1a9a e33d b02e 0e3e 397f 883d
00000270: cd85 d23d 7d95 eebc 0550 69bb 4d28 b43c
00000280: b6b6 26bd 75c7 9cbd 3184 9cbd e639 8cbd
00000290: 4ef8 9dbd bfdb 74bb a3c9 a53d 78dd 543e
000002a0: 7c6e 553d da5e 65ba 104a 62b9 f26e b53d
000002b0: e191 fd3d 63bf cb3e 7cab 2dbf c78a c7be
000002c0: 6035 30bf bb76 01c0 f598 c43d 29c5 653d
000002d0: 0d35 813d 1ddc 0a3e 1a1d f63d 27b6 d53b
000002e0: 8520 603b 5cbf 693d 50bc 693d 59ae 613d
000002f0: 4c63 4dbc 19d1 103d 41b4 9c3e ca3f 11bd
00000300: 82c6 883c 264c a5be 4c5f 03c0 61cf 02bd
00000310: 8ffc 6b3b b647 213d f5e7 0e3d 9a8a 67bd
00000320: 4882 463c b7c1 973d e494 bd3d c874 5bbc
00000330: 9388 923d 0c02 083e 8163 e73d 41a5 9a3d
00000340: 3b09 583e 74e2 ea3d ae2a 9a3d bc60 8c3c
00000350: 900f 6b3d bf34 e7bc 55e0 db3d 33dc 0dbd
00000360: ced3 dc3c 2545 d53b ce96 123e 5ac3 153e
00000370: 6d54 b53c 7646 0bba 3ede 053d 763c 18be
00000380: 366b 483b 8ce4 7abe 8190 09bf 6da6 a3be
00000390: c679 86bc 723a 583e 0abb eabe c075 a73e
000003a0: 89a2 4d3d 40d2 97bd 8163 193e 2c9e 63be
000003b0: 87f5 383e 4da8 f5bd 10b0 90be 0311 463c
000003c0: 2973 ac3d b021 853e 453f 35bb b9fe 4ebe
000003d0: 6994 15be 12d1 28bd e855 823e 2200 d9bc
000003e0: cfa8 39be 3ae1 20be 36f0 0b3d 7e70 03be
000003f0: f3fc cc3c d157 90bd 8ccb 82be 0aa7 2f3e

fc1.bias f4 [64]
0.078185104 -0.06985403 -0.095090546 -0.040826775 0.24477278 0.051071413 -0.13425356 0.025025794
-0.05174489 -0.058268163 0.15511353 0.21043296 0.13183014 0.10942664 -0.015419212 0.022279808
0.045626126 0.024987187 -0.01467003 -0.14461224 -0.113922454 0.08864623 0.16403514 -0.034173466
-0.08609998 0.0031187322 -0.011621045 -0.025259282 0.2663884 0.15862675 -0.04232853 -0.120414205
0.12040693 -0.03511493 -0.1264894 0.05504514 0.0051981006 -0.017613517 -0.022873256 -0.04582137
-0.05910321 -0.016765654 -0.07556043 0.17843543 0.014346763 -0.12416681 0.0077855214 -0.18014406
-0.2851191 0.0029166287 -0.15815425 0.11617647 -0.0555026 0.040877998 -0.18901388 -0.11680594
0.11132038 -0.101122074 -0.067376666 -0.11134401 -0.08786754 0.027207252 0.0496211 -0.039772376
00000000: 831f a03d a10f 8fbd d5be c2bd fa39 27bd
00000010: b7a5 7a3e 4230 513d c479 09be e502 cd3c
00000020: 73f2 53bd 99aa 6ebd 15d6 1e3e bd7b 573e
00000030: 7bfe 063e 131b e03d dda0 7cbc 2584 b63c
00000040: 76e2 3a3d eeb1 cc3c 915a 70bc 3b15 14be
00000050: 2d50 e9bd 288c b53d d4f8 273e 7af9 0bbd
00000060: 3055 b0bd a563 4c3b 3266 3ebc 8eec cebc
00000070: 0f64 883e 0d6f 223e ae60 2dbd b99b f6bd
00000080: e997 f63d acd4 0fbd 7086 01be 0377 613d
00000090: d454 aa3b 394a 90bc b260 bbbc 30af 3bbd
000000a0: 3516 72bd 2058 89bc 6dbf 9abd c7b7 363e
000000b0: af0e 6b3c 2b4b febd b01d ff3b af77 38be
000000c0: 21fb 91be e924 3f3b 30f3 21be eeed ed3d
000000d0: b256 63bd b06f 273d db8c 41be f437 efbd
000000e0: f0fb e33d 1719 cfbd c7fc 89bd 5408 e4bd
000000f0: e6f3 b3bd bee1 de3c 7f3f 4b3d 5ce8 22bd

fc2.weight f4 [64, 64]
-0.1894476 0.015137675 0.07478434 0.2860901 -0.20027551 -0.28027523 -0.107308276 -0.023405995
-0.046350922 -0.04045454 0.08350937 -0.20216131 -0.35643587 0.024101855 -0.046026338 0.07586209
0.057425886 -0.07640277 -0.009489783 0.047899406 -0.043342654 -0.2987321 0.09575891 -0.0457937
-0.26074055 -0.047567923 0.69726884 0.032577578 -0.041470543 0.12548399 -0.34406775 0.030206861
-0.06747674 0.18673779 -0.06954891 -0.24253964 -0.14945114 0.107399516 -0.25375646 -0.14776176
-0.27405867 -0.24439506 0.1341467 0.08906623 -0.042558677 -0.053225145 -0.018169153 -0.08156627
0.047193073 -0.011693257 -0.105166055 -0.0013745475 -0.081078745 0.0032550965 -0.07486863 0.08268647
-0.33401886 0.070744134 -0.4182552 0.060282066 -0.032793477 -0.16786632 -0.020615324 -0.21845272
0.043878675 0.0005978511 -0.14914021 0.18009175 -0.4573615 0.18521294 -0.033406965 0.17055422
-0.10076163 -0.27703702 -0.12795459 0.2561253 -0.091039844 0.10255656 0.082091115 0.13638611
0.19719821 0.1754158 -0.018162688 0.017679652 0.12581886 -0.19853163 0.11267901 0.07665283
-0.057552133 0.003538002 0.463723 -0.2508839 0.16060305 -0.08944079 0.04037564 0.05119081
-0.04978057 0.041322622 0.0064617307 -0.06266147 0.1085431 0.06674392 0.006938253 -0.063624516
0.2732543 0.068023175 0.08764773 -0.2993055 0.059976403 0.22211304 -0.13266052 -0.1272915
0.057654407 -0.04767996 0.17688839 -0.02402833 -0.062333956 0.22498232 -0.04255114 0.09665507
-0.6211269 -0.00872404 0.16510236 0.18119745 -0.047123022 -0.22596577 0.1659238 -0.21112798
0.03412832 -0.39594328 -0.13010128 -0.21405777 -0.1159851 -0.20021953 -0.28049314 -0.027824044
-0.10429224 -0.2941025 -0.030478504 0.16270536 -0.05825789 0.034970123 0.054578856 -0.13168079
0.13144487 -0.03411778 0.0030301881 -0.00565784 -0.41727296 0.2912557 -0.03990011 0.12384514
-0.13352166 -0.31497103 0.04361859 0.0032460005 -0.0783686 0.08491162 0.45355347 0.2235842
-0.20969477 0.0647251 0.007371337 -0.021735938 0.04369898 0.095723465 0.38080293 0.058254566
0.16329731 -0.3726393 -0.0067886924 -0.114697896 -0.21103702 -0.11488724 0.088975586 -0.12652451
-0.29507455 -0.261786 0.006724447 -0.20406877 -0.55466247 -0.036764238 0.12650415 -0.6239405
-0.064455375 -0.20495787 -0.026299233 0.042289417 0.36589935 0.15633158 0.21441741 0.22879738
-0.34748474 -0.1629301 0.03525679 -0.25416455 -0.16310412 -0.46090856 -0.03010919 -0.005325884
-0.23989512 -0.16110834 -0.18806201 0.17124166 -0.21669783 0.253647 -0.42970756 -0.12628
-0.16821042 0.12833802 -0.019192727 -0.07963072 0.096437745 0.12595347 -0.08681458 0.081184484
-0.0784822 0.21300231 -0.55262285 -0.15632173 -0.04495197 -0.12932819 -0.092156224 0.14210588
-0.15809563 -0.031050598 0.17122231 0.09780731 -0.18205842 0.08672101 -0.25354996 -0.3896513
0.22010362 0.074329734 -0.26612195 -0.059285842 -0.16054198 0.17325126 0.1706515 -0.31735185
-0.4064597 0.13597363 -0.09322227 0.12929659 -0.2980874 -0.19717693 -0.5558813 -0.22554871
-0.50240487 -0.30114207 -0.4306155 -0.29445085 -0.2292111 0.11255481 -0.028132176 -0.15328741
00000000: 8dfe 41be 0304 783c 8828 993d 677a 923e
00000010: 0615 4dbe 3c80 8fbe 71c4 dbbd eebd bfbc
00000020: 77da 3dbd a9b3 25bd f606 ab3d 6003 4fbe
00000030: c37e b6be 4171 c53c 1d86 3cbd 955d 9b3d
00000040: 6837 6b3d 0e79 9cbd 097b 1bbc 2b32 443d
00000050: 1188 31bd 6af3 98be 3f1d c43d 2d92 3bbd
00000060: c97f 85be 95d6 42bd 3680 323f 1170 053d
00000070: 04dd 29bd e07e 003e a629 b0be 6174 f73c
00000080: 3f31 8abd 3138 3f3e a96f 8ebd 505c 78be
00000090: b809 19be 47f4 db3d 5eec 81be dc4e 17be
000000a0: 6b51 8cbe b342 7abe c15d 093e 5b68 b63d
000000b0: 0252 2ebd 9c02 5abd 7ad7 94bc 370c a7bd
000000c0: 864d 413d 1395 3fbc 4d61 d7bd 292a b4ba
000000d0: 9d0c a6bd 7553 553b b954 99bd 8657 a93d
000000e0: 8504 abbe 4de2 903d 8c25 d6be 54ea 763d
000000f0: 7452 06bd 26e5 2bbe 78e1 a8bc 12b2 5fbe
00000100: 20ba 333d 1cb9 1c3a 36b8 18be f969 383e
00000110: 492b eabe 76a8 3d3e bed5 08bd c4a5 2e3e
00000120: 1d5c cebd ccd7 8dbe 8706 03be db22 833e
00000130: 1973 babd 2c09 d23d 631f a83d cda8 0b3e
00000140: 54ee 493e 33a0 333e ebc9 94bc ebd4 903c
00000150: a9d6 003e e04b 4bbe 41c4 e63d 29fc 9c3d
00000160: c9bb 6bbd d3dd 673b 1a6d ed3e db73 80be
00000170: 2075 243e bc2c b7bd ed60 253d 74ad 513d
00000180: b6e6 4bbd e941 293d edbc d33b a854 80bd
00000190: d84b de3d 09b1 883d 495a e33b 924d 82bd
000001a0: fde7 8b3e bc4f 8b3d a780 b33d 923e 99be
000001b0: d1a9 753d 9a71 633e 29d8 07be b458 02be
000001c0: 0727 6c3d 104c 43bd 3b22 353e 0fd7 c4bc
000001d0: e451 7fbd c461 663e 1b4a 2ebd 18f3 c53d
000001e0: 2c02 1fbf 47ef 0ebc 9810 293e d38b 393e
000001f0: 1204 41bd 9263 67be eee7 293e ef31 58be
00000200: 23ca 0b3d 14b9 cabe 4539 05be f631 5bbe
00000210: 9989 edbd 5906 4dbe cc9c 8fbe 40ef e3bc
00000220: 2c97 d5bd 9a94 96be 0eae f9bc 3c9c 263e
00000230: d39f 6ebd d53c 0f3d 148e 5f3d 54d7 06be
00000240: 7c99 063e 16bf 0bbd 1f96 463b 6765 b9bb
00000250: cda4 d5be 781f 953e 4c6e 23bd 85a2 fd3d
00000260: e7b9 08be e243 a1be 68a9 323d daba 543b
00000270: b77f a0bd 25e6 ad3d 2938 e83e 42f3 643e
00000280: 3aba 56be 988e 843d 428b f13b 910f b2bc
00000290: b4fd 323d aa0a c43d 9af8 c23e 579c 6e3d
000002a0: 6937 273e 94ca bebe ae73 debb bbe6 eabd
000002b0: 171a 58be 004a ebbd d538 b63d a48f 01be
000002c0: 0314 97be d108 86be c058 dc3b 67f7 50be
000002d0: 5cfe 0dbf 1996 16bd 4e8a 013e 91ba 1fbf
000002e0: 2e01 84bd 7ae0 51be 7d71 d7bc ab37 2d3d
000002f0: 2957 bb3e 6315 203e 3d90 5b3e dc49 6a3e
00000300: 85e9 b1be 26d7 26be 6d69 103d db21 82be
00000310: c404 27be 35fc ebbe 8ca7 f6bc c184 aebb
00000320: 11a7 75be 96f9 24be 5493 40be f959 2f3e
00000330: 09e6 5dbe 05de 813e a102 dcbe 8b4f 01be
00000340: 5a3f 2cbe 0b6b 033e 113a 9dbc 6e15 a3bd
00000350: 2781 c53d f2f9 003e d8cb b1bd 0d44 a63d
00000360: 47bb a0bd 471d 5a3e b178 0dbf ce12 20be
00000370: 8f1f 38bd 9c6e 04be 67bc bcbd 3484 113e
00000380: d2e3 21be d35d febc e754 2f3e 334f c83d
00000390: 866d 3abe c99a b13d 4dd1 81be 6080 c7be
000003a0: d862 613e 303a 983d 2341 88be b6d5 72bd
000003b0: 1e65 24be c768 313e 44bf 2e3e f17b a2be
000003c0: 7c1b d0be ac3c 0b3e 51eb bebd 5366 043e
000003d0: e99e 98be c0e8 49be 3d4e 0ebf 3ef6 66be
000003e0: 9b9d 00bf 4b2f 9abe a379 dcbe 43c2 96be
000003f0: 51b6 6abe 2383 e63d 7375 e6bc 60f7 1cbe

fc2.bias f4 [64]
0.0015561758 0.2662969 0.07293154 0.008701551 0.13591619 0.019965202 -0.110006794 0.028010905
0.24404992 0.5387991 -0.16217437 0.31105858 0.30702648 -0.16191395 -0.07619615 -0.020151442
-0.05465817 0.074919656 -0.115896516 0.524879 0.4023012 0.4480212 -0.06121643 -0.11192967
-0.11720153 -0.17569661 0.06354202 -0.08707263 -0.018797707 0.3077438 0.0378631 0.30743405
0.028664704 0.1663494 0.05557622 -0.048589353 0.073327355 -0.05321453 0.29904646 -0.20965885
-0.13327917 0.61413455 0.4240386 0.011022782 0.049170997 0.0017268587 0.2228417 -0.092737734
-0.06918667 -0.15581751 -0.077298254 0.23137058 -0.08954597 -0.0028216848 0.12394379 -0.03614464
-0.23917855 -0.13089684 -0.02087269 -0.1043419 -0.030599834 0.3831092 0.08319787 -0.005288311
00000000: 98f8 cb3a 1158 883e 225d 953d f390 0e3c
00000010: 9d2d 0b3e 108e a33c 3e4b e1bd 2077 e53c
00000020: 39e8 793e bdee 093f 0a11 26be 1243 9f3e
00000030: 9332 9d3e c5cc 25be ba0c 9cbd a314 a5bc
00000040: 3fe1 5fbd 7a6f 993d 275b edbd 785e 063f
00000050: 6cfa cd3e 0963 e53e 14be 7abd 623b e5bd
00000060: 5b07 f0bd d0e9 33be 5222 823d 2353 b2bd
00000070: a6fd 99bc 9890 9d3e 5716 1b3d ff67 9d3e
00000080: 3ed2 ea3c 7f57 2a3e e4a3 633d a105 47bd
00000090: a72c 963d 7bf7 59bd 9e1c 993e cfb0 56be
000000a0: 567a 08be ec37 1d3f 961b d93e e698 343c
000000b0: 8767 493d c357 e23a 9d30 643e 48ed bdbd
000000c0: beb1 8dbd a08e 1fbe 8c4e 9ebd 69ec 6c3e
000000d0: e163 b7bd 04ec 38bb 3ed6 fd3d 670c 14bd
000000e0: 39eb 74be d209 06be 34fd aabc 35b1 d5bd
000000f0: 81ac fabc e426 c43e a563 aa3d 9149 adbb

fc3.weight f4 [4, 64]
0.39194685 0.21239266 0.14574377 -0.0378367 0.026491515 0.23137869 0.12471625 -0.22469753
0.10588864 0.16327117 -0.17921156 0.21291117 0.29905927 -0.2840183 -0.02338579 -0.26407802
-0.047454126 0.18893616 -0.05134085 0.23110953 0.1366595 0.08527911 0.2699815 -0.01993011
0.36846584 -0.2803855 -0.02179669 0.34233862 0.016746422 0.13477404 -0.3090223 0.15062344
0.20237413 0.22759658 0.35163048 0.4780981 0.1473244 -0.11360701 0.24757557 -0.25142038
0.021925926 0.16484216 0.13055532 -0.24461369 -0.06412922 0.047825072 0.13436534 0.08172302
-0.06554696 0.18272766 0.3570522 0.28116912 0.3828226 0.10943033 0.14272937 0.16042002
-0.21116076 0.08181788 -0.3093672 0.16225378 -0.09826659 0.12815501 -0.11183023 0.09403074
0.42008564 0.20413654 0.14853653 0.09639176 0.3745183 0.21465132 -0.0987801 0.017550908
0.15475278 0.1425711 -0.09994396 0.21229301 0.16161239 -0.33740848 -0.020247638 -0.16259432
-0.103698 0.2462182 -0.08157631 0.1411319 0.173633 0.2098771 0.3011267 0.1013893
0.35071987 -0.3712683 0.03794025 0.39165238 0.07132737 0.22991514 0.11077298 0.20954184
0.3075624 0.101316385 0.3451074 0.4971216 0.14199528 -0.18866865 0.20435381 -0.20330632
0.016100682 0.22924265 0.09577328 -0.05581972 -0.03581798 -0.12842762 0.12652242 0.28086323
-0.2114108 0.18877652 0.2482161 0.32794058 0.7089017 0.1214413 0.19507214 0.11963165
-0.30337116 0.0048023905 -0.24573928 -0.48294267 -0.27543557 0.074250035 -0.34336635 0.07463327
0.005019832 0.26106322 -0.10711494 -0.30409467 0.5005234 0.12327556 0.0430334 0.074529074
0.013511959 0.17128792 -0.19126953 0.16689458 0.19226775 -0.35032743 -0.074394986 -0.0035106174
0.071893826 0.20990124 -0.022687804 0.17585583 0.10941156 0.23898233 0.14510341 0.025934149
0.3631128 0.026733426 0.37668154 0.65112484 0.34654588 0.44698766 -0.53748703 0.063649535
0.08228205 0.01787441 0.2992185 0.3968499 0.15149136 -0.6384483 0.10084561 -0.321139
0.035473887 0.21672088 0.17202538 -0.2726267 0.13531019 -0.45030928 0.13661198 0.43922552
0.04654303 -0.030078996 -0.1908141 0.36668932 -0.14284983 0.29020628 0.25770873 0.32044423
-0.3626491 0.06559434 -0.27019775 -0.15459907 -0.06409021 0.20482516 -0.47192955 0.16480957
0.070024095 0.33790517 0.0761718 -0.57163024 -0.31332824 0.30604395 -0.07214712 0.13117471
0.16906917 0.19369966 0.010986731 0.093711026 0.16283253 -0.21841584 0.05926323 -0.3039541
0.10014151 0.27275637 0.060562044 0.19508918 0.13594213 0.17601603 -0.1499492 0.042096026
0.022849543 -0.15624063 0.12154726 0.23717347 0.20219073 0.17185754 -0.22178194 0.12636185
0.06454606 0.14020687 0.23991947 0.89470804 0.0069788094 -0.5083511 0.17065434 -0.08872302
-0.1296598 0.24086882 0.19890296 -0.18224044 0.1590677 -0.338498 0.06603487 0.002407211
-0.18684472 0.07932067 0.31639585 0.15034199 0.8047216 -0.013209298 0.24641372 0.3142562
-0.17747322 -0.30652058 -0.19920346 -0.3230805 -0.28369033 0.07676355 -0.15016013 0.2385786
00000000: 42ad c83e 767d 593e db3d 153e a8fa 1abd
00000010: bc04 d93c 89ee 6c3e 3c6b ff3d 1c17 66be
00000020: 25dc d83d 8f30 273e 3c83 37be 6305 5a3e
00000030: 4c1e 993e d96a 91be 8e93 bfbc 3c35 87be
00000040: 425f 42bd 7b78 413e c84a 52bd faa7 6c3e
00000050: 78f0 0b3e d0a6 ae3d 043b 8a3e 7844 a3bc
00000060: 8ea7 bc3e b08e 8fbe f98e b2bc 0247 af3e
00000070: cb2f 893c 3502 0a3e 2c38 9ebe 083d 1a3e
00000080: 2a3b 4f3e 140f 693e e908 b43e 46c9 f43e
00000090: 35dc 163e cbaa e8bd 7384 7d3e 2cba 80be
000000a0: 009e b33c 62cc 283e 4bb0 053e 037c 7abe
000000b0: 2e56 83bd 39e4 433d 1197 093e 665e a73d
000000c0: 7c3d 86bd f61c 3b3e 8ccf b63e 66f5 8f3e
000000d0: 5301 c43e 021d e03d a627 123e 2545 243e
000000e0: 873a 58be 2290 a73d 6165 9ebe db25 263e
000000f0: fe3f c9bd 113b 033e 3f07 e5bd 3093 c03d
00000100: 7715 d73e 2b09 513e f619 183e 0b69 c53d
00000110: ddc0 bf3e 8ecd 5b3e 394d cabd ecc6 8f3c
00000120: 8377 1e3e 29fe 113e 6baf ccbd 5763 593e
00000130: b87d 253e cec0 acbe 60de a5bc 207f 26be
00000140: 9e5f d4bd a020 7c3e 7b11 a7bd e184 103e
00000150: d9cc 313e 06ea 563e 472d 9a3e 31a5 cf3d
00000160: 8e91 b33e e116 bebe 3c67 1b3d a986 c83e
00000170: 1614 923d e06e 6b3e f2dc e23d 2392 563e
00000180: d278 9d3e f77e cf3d ebb1 b03e b986 fe3e
00000190: 3667 113e 5b32 41be 2042 513e 882f 50be
000001a0: 94e5 833c 96be 6a3e c824 c43d 38a3 64bd
000001b0: e0b5 12bd 8882 03be 188f 013e 4ecd 8f3e
000001c0: 137c 58be a24e 413e 5c2c 7e3e d4e7 a73e
000001d0: 957a 353f 37b6 f83d fec0 473e 7001 f53d
000001e0: 7753 9bbe 5f5d 9d3b 14a3 7bbe 4344 f7be
000001f0: e405 8dbe 6710 983d b7cd afbe 54d9 983d
00000200: 677d a43b 14aa 853e 145f dbbd 4cb2 9bbe
00000210: 4d22 003f e677 fc3d ca43 303d b3a2 983d
00000220: 4461 5d3c 1a66 2f3e 29dc 43be 6ae6 2a3e
00000230: d6e1 443e 1e5e b3be 665c 98bd 6312 66bb
00000240: 123d 933d 5af0 563e c6db b9bc 8d13 343e
00000250: 2b13 e03d c9b7 743e fd95 143e da73 d43c
00000260: ece9 b93e 0f00 db3c 67dc c03e 1eb0 263f
00000270: 766e b13e 91db e43e c098 09bf b05a 823d
00000280: 7e83 a83d 5b6d 923c 2b33 993e e92f cb3e
00000290: 8d20 1b3e 5971 23bf 2588 ce3d 556c a4be
000002a0: 114d 113d 14ec 5d3e 6c27 303e ba95 8bbe
000002b0: c18e 0a3e f08e e6be 03e4 0b3e 2be2 e03e
000002c0: e7a3 3e3d 3a68 f6bc c564 43be b4be bb3e
000002d0: 3a47 12be eb95 943e 66f2 833e 4411 a43e
000002e0: 25ad b9be 5356 863d 5c57 8abe 384f 1ebe
000002f0: ba41 83bd b0bd 513e c0a0 f1be d7c3 283e
00000300: cb68 8f3d e801 ad3e f6ff 9b3d 5c56 12bf
00000310: 8f6c a0be cbb1 9c3e dfc1 93bd aa52 063e
00000320: 7820 2d3e 3459 463e b101 343c 91eb bf3d
00000330: 92bd 263e 67a8 5fbe 00be 723d df9f 9bbe
00000340: fe16 cd3d b9a6 8b3e e80f 783d 75c5 473e
00000350: 6a34 0b3e 8c3d 343e 488c 19be e26c 2c3d
00000360: f72e bb3c 8bfd 1fbe c5ed f83d 9add 723e
00000370: 160b 4f3e 6cfb 2f3e ce1a 63be 0065 013e
00000380: ba30 843d 6492 0f3e 73ad 753e 960b 653f
00000390: 7fae e43b 4c23 02bf 03c0 2e3e 6ab4 b5bd
000003a0: 8ac5 04be 51a6 763e 38ad 4b3e 3d9d 3abe
000003b0: a5e2 223e 9c4f adbe 4a3d 873d 4dc2 1d3b
000003c0: 3954 3fbe e072 a23d a3fe a13e 40f3 193e
000003d0: 3c02 4e3f d06b 58bc e153 7c3e 30e6 a03e
000003e0: 8abb 35be 44f0 9cbe fefb 4bbe cf6a a5be
000003f0: dc3f 91be 3536 9d3d 94c3 19be f34d 743e

fc3.bias f4 [4]
0.41158497 0.3432931 0.2508576 0.23374435
00000000: 44bb d23e 1dc4 af3e 6870 803e ae5a 6f3e
